model.pth (torch, 16180 bytes, 6 tensors)

fc1.weight f4 [64, 17]
00000000: 4deb 473e 5776 583d 3677 53be 9869 efbc
00000010: c774 81bd 0ec2 4b3d 5939 afbe 6d2a 17bf
00000020: 23f3 f1bc 06f7 233e 5211 95be 5579 593e
00000030: 7ccd 503e 3e1b 2c3e 058b c0be 8d71 7c3e
00000040: acad fd3d 2936 043e 2687 093f 9f73 9ebe
00000050: 938e 2fbd 6e05 163e 5adf 21be a3b0 0a3e
00000060: 65e2 84be 120e ee3e 0c1a c6bc 5280 0ebe
00000070: 65ea babd dc9f 523e c07a 88be 8e94 dabe
00000080: 42b3 003d 4e30 903e 8173 3ebe 4c7a b4ba
00000090: 4886 85bc cd33 82bc 7af9 a7bd dcf8 bb3d
000000a0: 0b6c 54be ebcc cd3e f09e 89bc 99c6 793e
000000b0: ac10 40bf 73c2 3d3e 0869 87bd f37e d93e
000000c0: b8a0 2abe ac4c ddbd cfe7 e7bc 62dd 1b3e
000000d0: d6b3 e0bd 7e80 bc3d 8c8d a43d 21b6 bebd
000000e0: a847 abbe f7e0 01bc bfc1 1f3d a7c6 993e
000000f0: 8618 203d 3959 21be db6f 133e 68ba 7fbe
00000100: 1ee2 c9bc 92b3 7b3e 2315 6cbe 8296 713d
00000110: 1a71 d53d dbe3 2cbd 743e 503e 8e4f a83e
00000120: fd23 5d3e 6b10 25be 00a9 1f3e c747 883c
00000130: ee4c acbe c83f 0c3f afd7 86be f096 a7be
00000140: fed3 51be 3f9d 0fbd 9e79 31be 7445 213e
00000150: e9c1 0c3e 0a84 873d 435b b13d d4f8 c13d
00000160: 95f4 43be 0517 69bd 2fde b83e 8bbd a43d
00000170: 1761 953e 1c9a 353e b3e5 26be bb6c b03e
00000180: f4eb 3ebe 4b5b fbbe 3c40 583e c13f 61bc
00000190: 2a95 38be 8dee 0bbe 2eeb 393e d9a7 493e
000001a0: d1c3 853e 1c9f 663e 291c 243d dc56 293e
000001b0: f19f 433e 8318 7e3e 0d68 debe 5700 45be
000001c0: 545d b1bd 9df2 b23e 097e 8fbe a2ed 233c
000001d0: 491d 85be 3a2a 18be 603c b33d 2449 aa3d
000001e0: bf5f 4a3e a9c4 a03d 2bc5 36be 9d35 57bd
000001f0: bb4c bc3d 5fab fb3e 7a29 da3e bb31 eebe
00000200: 2065 d9be 7719 f13d 81ca 8ebe 568f 2e3c
00000210: 16d3 053e 4c6f cdbd 511a d6bd b669 47be
00000220: a83a 703d 3598 02be 5682 3d3b 1c64 1e3d
00000230: bd46 873d fe12 2fbe 3f60 e93e 96d1 cbbe
00000240: 1222 e53e db0d b2bd 4f74 13be 757c 783e
00000250: 4f28 ce3d 3b9b d6be 03fd febc 0628 6d3e
00000260: 458c 87bd a631 543e 15bb 26be ccd8 37be
00000270: 2423 b1bc d884 87be 1f05 8b3e 4c6a 393e
00000280: 2edd c1be 11c1 e03e 7cf4 4bbe 26db cb3d
00000290: a020 a6bd 7972 f83d e572 413e cafd ccbd
000002a0: 92b1 81be 27c2 36be 82fc 673e 7e47 43be
000002b0: 4a60 373e 906e b83d 5535 743e 98e4 2b3e
000002c0: 0098 b7be 41ad 763e 4b5a 6cbd d618 8cbd
000002d0: 688e c93e 974d 2abe 775a 83be 5a3f c83d
000002e0: f687 9b3b 4126 93be 481e 9cbe 8070 f23b
000002f0: 6575 fc3b af71 18be 960d bebe e862 88be
00000300: 8324 acbe a559 cb3e 1ca7 96bd 5315 d93d
00000310: c381 b33e c320 8abd 73a7 d03d fb72 93be
00000320: 1864 db3e 7c9a 48be 71ec 223d 2f8b 25bd
00000330: 30a8 c6bc b540 0b3d d6a4 693e 31d6 9fbe
00000340: a8a4 c03d 21e7 b13d 5f55 a5bc ef84 cc3e
00000350: e657 fb3e 867a 0cbe c323 d0be 895f 553d
00000360: 0be4 5e3e 7232 2f3b f2a7 68be 55b6 a33d
00000370: 4ac7 03be 13bf 2d3e 53c2 06be fdbc 15be
00000380: 9543 dc3e acbf a23c 4ffd 83bd 7ad0 2fbe
00000390: 1526 af3e 7db5 bdbe b8f7 22bd 5896 d73d
000003a0: 3e85 ce3d 5e3e 02bf 6442 0d3e 8a39 1fbc
000003b0: 893f 653d 0cf1 c6bd 140c d1bd a458 ffbe
000003c0: 9fec 2b3d e805 75bd 98e9 3a3e e234 823e
000003d0: ac2a 8c3e 9d40 93be a402 d2bd fad8 7c3e
000003e0: bde3 18be e636 c5be b4f8 ebbd 37ed b13e
000003f0: b55a fb3d 0183 6d3c 43d5 173d 8243 5f3c
0.19523354 0.052847233 -0.20650944 -0.029225156 -0.06321102 0.04974561 -0.3422344 -0.5904911
-0.029534882 0.160122 -0.29114777 0.21237691 0.20390886 0.16807267 -0.37606063 0.24652691
0.12386641 0.12911285 0.53721845 -0.30947587 -0.04286058 0.14650509 -0.15807858 0.13543944
-0.25953975 0.4649511 -0.024182342 -0.13916138 -0.091267385 0.20568794 -0.2665615 -0.42691463
0.031420954 0.28161854 -0.18598749 -0.0013769357 -0.016299382 -0.015893841 -0.08201881 0.091783255
-0.2074434 0.40195403 -0.01679942 0.24392165 -0.7502544 0.18531208 -0.0661183 0.42479667
-0.16662872 -0.108056396 -0.028308777 0.1522117 -0.10971801 0.092041954 0.080348104 -0.09312082
-0.33453107 -0.007927171 0.03900313 0.30034372 0.039085887 -0.15756692 0.14398138 -0.24973452
-0.024643954 0.2458022 -0.23054938 0.058981426 0.10421963 -0.042209487 0.20336324 0.32873195
0.2159576 -0.16119544 0.15591812 0.016635789 -0.33652443 0.5478482 -0.2633643 -0.32732344
-0.20491025 -0.03506207 -0.1733155 0.1574915 0.13745846 0.06616981 0.08659985 0.09471288
-0.1913627 -0.05690672 0.36107013 0.08043965 0.29175636 0.1773457 -0.16298561 0.34457955
-0.18644696 -0.49093089 0.21118253 -0.01374811 -0.18025652 -0.13665219 0.1815612 0.19692935
0.2612596 0.22521633 0.040065918 0.1653704 0.19103982 0.24814038 -0.4343876 -0.19238411
-0.08660379 0.34950724 -0.28025845 0.010005387 -0.25998905 -0.14859858 0.0875175 0.08314732
0.19763087 0.0785001 -0.17848651 -0.052541364 0.09194323 0.49154183 0.4260977 -0.46522316
-0.42459965 0.11772435 -0.27888873 0.010654291 0.13068804 -0.10030994 -0.10454238 -0.1947392
0.05864969 -0.12753375 0.0028916798 0.03866969 0.06605289 -0.17097089 0.45581242 -0.3980834
0.44752556 -0.08694049 -0.14399837 0.24266227 0.10066282 -0.41915306 -0.031126505 0.23159799
-0.06618551 0.20722064 -0.16282304 -0.17953795 -0.021623202 -0.2646854 0.27152345 0.18106955
-0.3786406 0.43897298 -0.19917482 0.099539086 -0.081116915 0.12131209 0.18891485 -0.10009344
-0.25330788 -0.178475 0.22654918 -0.19070241 0.17907825 0.09005463 0.2384847 0.1678642
-0.35858154 0.24089529 -0.057703298 -0.068406746 0.3936646 -0.1663116 -0.25654957 0.09777708
0.0047464324 -0.28740123 -0.30491853 0.007398665 0.007704424 -0.14887117 -0.3711974 -0.2663796
-0.33621606 0.3971683 -0.07356092 0.105997704 0.35059938 -0.0674453 0.101881884 -0.2879866
0.42849803 -0.19590181 0.03977627 -0.04041594 -0.02425012 0.033997256 0.22816786 -0.31218103
0.09406406 0.086866625 -0.02018231 0.3994517 0.490905 -0.13718614 -0.40652284 0.052093063
0.21766679 0.0026732949 -0.22720316 0.079937615 -0.12868991 0.1696742 -0.13160066 -0.14622875
0.4302031 0.019866787 -0.06444799 -0.17169371 0.34208742 -0.37052527 -0.039787024 0.10526723
0.10084008 -0.50876415 0.13794857 -0.009718308 0.055968795 -0.09713945 -0.10207382 -0.49872315
0.041973706 -0.059820086 0.18253171 0.2543097 0.27376306 -0.28760234 -0.1025441 0.24692145
-0.14930625 -0.38518447 -0.11522046 0.34751293 0.1227316 0.014496566 0.037068617 0.013626935

fc1.bias f4 [64]
00000000: 687b 823e b726 35bf c7f3 553e 0102 a6be
00000010: d8fd 76bc 3f04 dfbe e62f adbe b527 ac3e
00000020: 9c3e 303e db81 d2be 8ecb afbe 8496 82be
00000030: 3120 ddbe 25d6 6dbe 207e c4be dd3b e73e
00000040: c09b 23bf ac57 17bf 7a4f 28be 19cd e73c
00000050: 6f02 213f 1215 803e f1b1 413f fc64 61bf
00000060: faa3 2cbd 3101 08bf 5f1b bf3c a5fd bcbf
00000070: e4b2 53bf 7702 efbe 359c 283e 021c 62bf
00000080: 9092 64bf 700f 18be 445a 6b3e e8a9 a03e
00000090: 6252 31bf 63bd ab3c 8f68 a7bc 5843 90bf
000000a0: c0c7 923e a34a 80bf f90b 733e 0830 073e
000000b0: 1540 d23d 4bab 933e d3f7 e93e 369e 383f
000000c0: b0db b33d 785e 78be 4a70 b93e d498 82bf
000000d0: 36d6 99bd cea6 83bc 80f3 00bf e67b 4a3e
000000e0: 08bb b9be 6410 793e 5868 40be 8cee 9c3e
000000f0: 03ab ddbe d7fb 033e e84c edbe f99f ef3e
0.25484776 -0.707622 0.20893775 -0.32423404 -0.0150751695 -0.43557927 -0.33825606 0.33624044
0.17211384 -0.41114697 -0.34334987 -0.2550546 -0.43188623 -0.23226221 -0.38377476 0.4516286
-0.6390953 -0.5911815 -0.16436568 0.02829604 0.6289434 0.25016075 0.7566214 -0.88044715
-0.042148568 -0.5312682 0.023328481 -1.4764906 -0.8269484 -0.46681568 0.16465838 -0.88323987
-0.89286137 -0.14849639 0.22983652 0.31379628 -0.6926633 0.02096433 -0.0204356 -1.1270552
0.28668022 -1.0022777 0.23735036 0.13201916 0.10266129 0.28841624 0.45696887 0.7211641
0.087821364 -0.24254787 0.36218482 -1.020289 -0.075115606 -0.01607075 -0.5037155 0.19773826
-0.36275506 0.24322659 -0.18789804 0.30650747 -0.43294534 0.12889038 -0.46347737 0.46801737

fc2.weight f4 [32, 64]
00000000: aeb4 c4be 31cb 283e 2cd8 7d3d 2551 163e
00000010: cf7a e7be 90b9 1e3b 1ceb 17bf dead a43e
00000020: 316b 92bc ed7a 97be 4175 2cbe 74e2 813e
00000030: c74c 2f3d 5ffc 273e 7ed3 18bf 641e 933d
00000040: 7c9e 18be da3e 07bf 5a73 a3bd e9bd 253d
00000050: c1c8 9bbe ceb8 59bd 820a 82bf 3024 9a3d
00000060: 3c6f d1be 63df 84be 612f f03d 852c 21bf
00000070: c163 c43e 2b16 91be fb80 8d3e b092 94be
00000080: d839 693e 6432 bcbe b001 7b3e 20ea d43e
00000090: 03bf 903e 995c b03e 8a2f 263d f488 ad3e
000000a0: 965b 25bf 811a 2f3d 441d 2fbe efb2 b2be
000000b0: a411 61bd 9538 d0be 807e 883c 1c9d 033d
000000c0: 5419 223e 014a 21bd ca89 ad3d a144 393e
000000d0: f5a5 133e 5a6e aabe bdb9 623e 780a 53bf
000000e0: 672f 8dbe fd61 2b3e ace4 623e fa9e 50be
000000f0: 231a c0be ca28 643a 4bdb c73b 36a6 b3bd
00000100: c072 d83d d103 1a3e 422b 413e 4cf7 d43d
00000110: a88c d5bd 5de2 8eba c3de 26be eb78 09bf
00000120: 8f42 d13d 69bd 9d3e 2cb2 133e 575b 603d
00000130: eac1 823e a9ce 91bd 2c63 073c db78 3f3e
00000140: 8e20 c7bd 6299 b33d bd07 08bd 94a7 a2bd
00000150: 0d81 e4be c702 513e 7ec6 4abe ebe7 6bbe
00000160: 39f3 22bd 8ed0 ab3d d90b 143e 315b b1be
00000170: 7ef3 a43d 86e6 633e 560e 55bd 670e b3bd
00000180: e50e 7bbe 3849 873d e907 d03d 8bf5 bd3d
00000190: f4f0 0cbe 9756 2d3e 12f4 8b3e 62cb 133d
000001a0: 74c5 903e 0231 86be ff90 303e e313 c0bd
000001b0: b1dd a1be 8b9f 70bd bef5 973e 7559 9a3c
000001c0: ced5 88bb d141 713c e3c9 c2bd 9184 5f3d
000001d0: 2f00 adbc a702 8d3e 360b 97bd 61a9 4dbe
000001e0: 5ddb 26be a180 b4bd 4728 f53c d930 083c
000001f0: bc7b 883e 8ecd ad3e 1155 02bf b613 9d3e
00000200: 4ab6 b13e 6700 c6be 5f4a 5e3e 4f82 efbc
00000210: 7a65 a53e 0b06 d9be 6ccb 1dbe a036 00bf
00000220: 66c7 f8bd 5584 9fbe 9360 2bbf 95c8 bc3e
00000230: f252 ac3d 840c 933d 3499 4d3e c700 873d
00000240: c56d 5ebe 34e9 57be 0941 63bd cefe acbe
00000250: 1a0f 7abf e21f 08be e746 d2bd b18f 79be
00000260: 3371 803e c05f 5dbd 3b07 00be 7433 d23e
00000270: 5c33 46be fd4b 233d ccbe c7be e407 b0bd
00000280: 3533 ee3d 962d 873d 46e8 7ebf ed06 eabe
00000290: f72c 9c3d a7d5 42be d8b0 4e3e b0ac c83e
000002a0: 9791 93be 222d acbe fa13 cdbe 0d74 babd
000002b0: 42c8 06bf 6e06 cfbe fe67 b0bc 7aea 1e3e
000002c0: 0811 6ebe 69af a43d d844 61bd e94b 803e
000002d0: 2d35 b9be e280 f93b 1363 4cbe 2d5a 623c
000002e0: 6eb1 a73d 815f b9be e608 cf3d c7f8 5b3e
000002f0: e724 83bd 3582 333e 8b6c ff3d b551 b7be
00000300: 417f 9abe c7fa eabe d5b3 323d d00e a93d
00000310: ca9f a73d 785d 3ebe 9472 fe3d 2847 30be
00000320: 3104 fa3c 5d77 62be ce72 39b9 bc7a 42be
00000330: 44a0 1c3d da2b 9a3e d873 03be 8548 32be
00000340: a734 693d d0e4 25be a446 acbc 5087 afbb
00000350: 46cc 633e f8ec 8fbf 5414 01bf 9206 df3c
00000360: ce00 2dbe ff63 b23c 4b2b f73c 16fb b03e
00000370: d002 07bf 2a1a 10bf aa73 94be 38bc 203e
00000380: 56fd 473e 58a7 d83d 0481 dabe 2af8 dbbe
00000390: 16e3 53be b052 c2be ded9 193e c8ba 543f
000003a0: 058f 83bf f3be 123e 59e2 033e 3918 c3be
000003b0: 51f0 c5bc f228 e1bb 7331 3cbe 9270 23bd
000003c0: 8b90 b33d 6d95 433e c182 883e 68e1 a03e
000003d0: 2103 88be 5cda 25bb e1a8 883d 56fc a4bd
000003e0: 6bbc 623e 24e8 983e e1c0 cfbc c3fe 5fbd
000003f0: ae5f b7be 7544 97be 77b5 833e bd16 e8bc
-0.38419098 0.16483761 0.061973736 0.14679392 -0.45210883 0.002421949 -0.59343123 0.321639
-0.017873378 -0.29585972 -0.16841604 0.25368083 0.04279783 0.16404866 -0.5969771 0.07183531
-0.14904207 -0.5283028 -0.07980986 0.040464316 -0.304266 -0.05315476 -1.0159457 0.075264335
-0.40905178 -0.2595168 0.11727787 -0.62958556 0.38357356 -0.28337225 0.27637467 -0.29018164
0.22775972 -0.36757195 0.24512362 0.41584873 0.2827073 0.34445646 0.04057268 0.3389355
-0.64592874 0.042749885 -0.17101008 -0.3490214 -0.054948464 -0.4066817 0.016661882 0.032132253
0.15829974 -0.039377216 0.08473547 0.18092586 0.14418776 -0.33287317 0.22141166 -0.8243785
-0.27575228 0.16736598 0.22157544 -0.20373145 -0.3751994 0.0008703588 0.00609914 -0.087719366
0.10568762 0.15040518 0.18864158 0.10398731 -0.10427219 -0.0010901202 -0.16295914 -0.5370013
0.10217773 0.3080857 0.14423436 0.05477461 0.2553857 -0.071194954 0.0082633905 0.18698446
-0.09723006 0.0876949 -0.033210505 -0.07942119 -0.44629708 0.20411216 -0.19802281 -0.23037688
-0.039782736 0.08389388 0.14457645 -0.34639886 0.08054255 0.22255906 -0.052015625 -0.087429814
-0.245174 0.06605762 0.10157759 0.09275349 -0.13763791 0.16927563 0.27334648 0.036082633
0.28275645 -0.26209265 0.17242812 -0.09378793 -0.3161445 -0.058745902 0.29679674 0.018841485
-0.004175878 0.0147251645 -0.09511163 0.054569785 -0.021118252 0.27541086 -0.07375185 -0.20084144
-0.16294618 -0.088135965 0.029926432 0.008312427 0.26656902 0.33945888 -0.5091105 0.306791
0.34709388 -0.38672182 0.21708058 -0.02923694 0.32303983 -0.42387423 -0.1540963 -0.5008335
-0.12147407 -0.3115565 -0.66944236 0.36871782 0.08414258 0.071801215 0.20077974 0.06591945
-0.21721561 -0.21085054 -0.055481944 -0.3378815 -0.97679293 -0.13293412 -0.1026743 -0.2437122
0.25086364 -0.054046392 -0.12502758 0.4105488 -0.1935553 0.03986739 -0.39012754 -0.08595255
0.11630861 0.06600492 -0.9957317 -0.4570841 0.07625764 -0.19026814 0.20184648 0.3919425
-0.28822014 -0.33628184 -0.40054303 -0.09104166 -0.5264932 -0.40434593 -0.021533962 0.15519133
-0.23248684 0.08041269 -0.054997295 0.25057915 -0.36173382 0.007614241 -0.19959669 0.013815445
0.08188139 -0.36205676 0.10109119 0.2148162 -0.06403523 0.17530139 0.12471875 -0.35804525
-0.30175212 -0.45894453 0.043628532 0.082547784 0.08184774 -0.18590343 0.12424198 -0.17214644
0.030519577 -0.22115846 -0.00017685743 -0.18992132 0.03823878 0.3011158 -0.1283716 -0.17410477
0.05693498 -0.16200566 -0.021029778 -0.0053567067 0.22245893 -1.1244192 -0.50421643 0.027224813
-0.16894838 0.021776197 0.03017201 0.34566563 -0.52738667 -0.56289923 -0.28994495 0.156968
0.19530234 0.10578793 -0.42676556 -0.42962772 -0.20692095 -0.3795371 0.15024516 0.83097506
-1.0278021 0.14330654 0.12879314 -0.38104418 -0.024162443 -0.006871336 -0.18378238 -0.039902277
0.08767804 0.1909997 0.26662257 0.3142197 -0.26564887 -0.0025307154 0.06672836 -0.08055942
0.22142188 0.2986461 -0.025360527 -0.05468632 -0.35815185 -0.29544416 0.25724384 -0.028331155

fc2.bias f4 [32]
00000000: d29e 9ebd a053 ac3e c525 09bf ae60 ebbd
00000010: 4629 8abd 2908 8f3e 0721 9bbd 28b7 fbbd
00000020: 14be 973b 5cfc 3bbf d0d8 d9be 8c5e 9abd
00000030: a8f5 163e a2eb 663d 7a5e 133d db36 c53d
00000040: 62f2 203e 51ea 8e3e e8a9 c33d d2af 88bd
00000050: f2a4 1a3d 87db 783d 477f d23d 895c 093e
00000060: efa7 3b3e e0b0 2dbe f886 42be 4bdc 2dbe
00000070: 9019 8abc 4416 b53d 44c9 c2be 0e08 033e
-0.07745136 0.3365755 -0.53573257 -0.114930496 -0.067461535 0.27935913 -0.07574659 -0.12290794
0.0046308134 -0.73431945 -0.42548227 -0.07537565 0.14742148 0.05637706 0.03597877 0.096296035
0.15717462 0.27913144 0.095538914 -0.0667416 0.03775496 0.060756233 0.102781825 0.13414206
0.1832578 -0.16962004 -0.18996799 -0.16978566 -0.016857892 0.088421375 -0.38044178 0.12796041

fc7.weight f4 [8, 32]
00000000: 1dcb afbe 938e 80bc 6102 a63e cbad 1ebe
00000010: aff1 1cbd c8b1 a5bd ce0b 15be ea1a 1abd
00000020: be5f 28bd 65b1 e53e 6098 5f3e 22d8 423e
00000030: 981b 9e3e 0079 f6bd 3add d73d 0fd0 1bbe
00000040: f825 fdbb 165b 6d3e 6385 0ebd 0eb0 0dbd
00000050: 93ce 7a3e 78e4 073d 9c35 0abe 6116 513e
00000060: 6c95 14be a0cc 693c 580d 4f3b c273 6bbd
00000070: 7568 013e 3e29 8d3e 07e0 c9bd 8345 773e
00000080: e926 943e 21d2 b8bd 427b 83be 8543 fd3e
00000090: 1ec2 143e 9ea0 b93a 43dc 7cbc e4ce 983c
000000a0: 017c 7bbe 1bfa 75bb a8ab 8b3e f417 38bd
000000b0: 719e 833e 62a4 12be 2e36 c6bc b1ab 473e
000000c0: c944 8fbd 5320 383e aede 68be 8a08 b3be
000000d0: e13d af3d e855 a33e e71a 2b3d e2a5 b93c
000000e0: 4075 aabd dc53 143b 6a3f ba3d 5598 c1bc
000000f0: ce19 38be 2bdc 4d3e 329d 45be 15eb 623e
00000100: dc91 c93e af63 7f3e 1c85 abbd af03 d13d
00000110: f35e cc3e 2f9f 2c3f 0431 973c 3aaf cebd
00000120: bbad 0dbd dae1 4ebe 1e6f aabd 781d a03d
00000130: a916 383e 0c63 32be 30a7 033e 18a9 dabc
00000140: fb0d 243e 3d6b f33d 86c2 a6be 255c e63d
00000150: 86e6 2b3e 05a9 bdbd 32e5 ee3d 553e 00bd
00000160: 099a fc3c c8dc a53c 58f2 3a3d f7c5 813d
00000170: 9a67 b2be bb7c 803e 2d09 6e3d 88a2 a23c
00000180: 1f5e a6be 7691 9f3d 75d5 73bd 3ab2 ab3d
00000190: 0d46 d63a 49f1 a13e 893b 1cbd a040 333e
000001a0: 1d63 1b3d 80df fe3e 00f1 853e 3317 23be
000001b0: 9ac9 903e 4bde 19bd bd98 4c3e fcf0 7c3e
000001c0: 2a31 623e a6b6 8c3e e6ef c03d 5f4a 8b3e
000001d0: 5a0d 6fbe 4506 4c3d 776c 13be 97b3 32be
000001e0: bda3 9dbe f900 f13d 9f2d 323b 32e7 273c
000001f0: 17ae b13d 146c bf3d 3f8d bd3e 72ff 923d
00000200: dfa4 083e 39ca debd a7ec ebbd f291 d73d
00000210: 30d9 413f 81eb 7b3d fc1d 6bbd 6664 bbbd
00000220: 711d 723e a42c babe f394 a13c 3ff9 9e3e
00000230: 0499 ad3d 934b 8ebe 1332 3dbe ff25 073e
00000240: 2194 353e f68d 8a3e e4f6 febc 5e62 23be
00000250: 0a23 933d 866a a63c ef0c 613e 5a87 c6bd
00000260: 8f5a c43d c93b 24be 73c2 d53d b3d3 163e
00000270: 2694 a13d c76d 813d 2398 043e 39f1 7b3e
00000280: 3c74 89be 3851 183e c3e6 183f 783a ae3e
00000290: d8ac db3d f019 cb3d af7f 363e aa28 a43e
000002a0: 154f bc3d 3349 32bf 5057 fcbe 23c7 863e
000002b0: f5d8 d63c 3d19 ccbe 8f3e 8ebc 1a6d 363e
000002c0: a950 203e 31c7 853d dbad 343f 53fd f4bd
000002d0: 8f14 143c b3ab 613e eac8 413d db73 053e
000002e0: 6701 d0bd 7cc2 8fbd 6794 51bb a2e2 53be
000002f0: 7e1e 363d 95b4 163e 1657 df3b eba8 c53d
00000300: 1850 f83e e25e 51bb 32e9 c13e 1ab6 35bd
00000310: 0be1 3d3e e08b 41bd f0a0 59be c2f6 2c3e
00000320: 2971 d3bd 686a 24bc d372 2d3e f816 4cbe
00000330: a104 80bd 2f32 bb3d 8a1b 20be 8c86 433e
00000340: 58eb 8c3e c9e1 d33d e118 11bc 3257 dfbe
00000350: b67e 74be 6b45 41bd 5cbd 343e 9a9a 533e
00000360: c9d6 c2be 359e 903e 8a90 c8bd 9a13 de3e
00000370: 62ff 203b 7d65 6b3e bd88 22be abf8 4d3e
00000380: 7681 043b 1720 6e3e 3ac1 5e3e f559 8bbc
00000390: 5ef7 73be 7fd4 603d d076 8bbe fd2c f8bd
000003a0: 25ad 1c3e 6ac7 473e 691e 823e 3175 2e3d
000003b0: 2bd9 ea3d e06a 50be 1935 71be 1532 9fbd
000003c0: f05c 3e3e 8764 443e f8c4 1f3e 1bb5 fb3d
000003d0: c35d d3be f911 9d3e 74be b53d 1978 0dbd
000003e0: 0574 9d3d c607 903e c0d0 ef3d d7fd 10be
000003f0: c065 883d 44bf 2d3e 31dc 8e3e 185b cbbd
-0.3433465 -0.015692985 0.3242369 -0.15495984 -0.038316425 -0.0809055 -0.14555284 -0.037623324
-0.041106932 0.44861904 0.2183547 0.1902776 0.30880427 -0.12034798 0.105402425 -0.15216087
-0.0077254735 0.23179278 -0.034795176 -0.034591727 0.24492864 0.03317687 -0.13497013 0.20418693
-0.14510125 0.014269978 0.0031593647 -0.057483442 0.12637503 0.27570528 -0.09857183 0.2414761
0.28935936 -0.09024454 -0.25679976 0.49465576 0.14527175 0.0014162248 -0.015433374 0.01865334
-0.24559022 -0.0037533108 0.272794 -0.04494472 0.2570682 -0.1432052 -0.024195757 0.19499089
-0.069955416 0.1798108 -0.22741196 -0.34967452 0.08556724 0.3190148 0.041773703 0.022662107
-0.08323145 0.0022632992 0.090941265 -0.023632208 -0.17978594 0.20103519 -0.19298247 0.22159989
0.39369094 0.2494037 -0.08374998 0.10205781 0.3991619 0.67430395 0.01845599 -0.100920156
-0.03458951 -0.20203343 -0.08321975 0.07818121 0.17977394 -0.17420596 0.12856746 -0.026691958
0.16020958 0.118856885 -0.32570285 0.11248044 0.16787156 -0.092607535 0.11664809 -0.031309444
0.030835168 0.020246878 0.045641273 0.06336587 -0.34844667 0.25095162 0.05811422 0.019852892
-0.32493684 0.07791416 -0.05952974 0.083836034 0.0016347781 0.31629398 -0.038142715 0.17505121
0.03793632 0.49779892 0.2616043 -0.15926819 0.2827881 -0.03756551 0.1998014 0.24701303
0.22089067 0.274831 0.09420757 0.27205178 -0.23344937 0.049810667 -0.14396845 -0.1745132
-0.30788985 0.11767764 0.0027187837 0.010247992 0.08675783 0.09346786 0.37021825 0.071776286
0.13344143 -0.10878415 -0.11519747 0.10525884 0.75722027 0.06150389 -0.057401642 -0.09150009
0.23644044 -0.36362183 0.019724345 0.31049535 0.08476451 -0.27792034 -0.18476133 0.13198088
0.17732288 0.27061433 -0.031123586 -0.15955493 0.071844175 0.020314466 0.2197759 -0.09693785
0.09587585 -0.16038431 0.10437479 0.14729194 0.07889585 0.063197665 0.1294866 0.24603738
-0.26846492 0.14874732 0.59727114 0.34028983 0.10726327 0.099170566 0.17822145 0.32062274
0.09194771 -0.69642943 -0.49285364 0.26323804 0.0262265 -0.39863005 -0.017363815 0.17815056
0.1565577 0.06532133 0.7057778 -0.1196238 0.009038105 0.22038154 0.047310747 0.13032477
-0.101565175 -0.07019517 -0.0031979324 -0.20691922 0.044462673 0.14717324 0.0068158014 0.09651359
0.48498607 -0.0031947424 0.37873226 -0.04436312 0.18542878 -0.047252536 -0.21252799 0.16891006
-0.10324318 -0.010035135 0.16938333 -0.19930637 -0.06250883 0.09140431 -0.15635505 0.19094294
0.27523303 0.103457995 -0.008856029 -0.43621212 -0.23876461 -0.047185343 0.1765036 0.20664445
-0.38054493 0.28245702 -0.09793194 0.4337433 0.0024566283 0.22987933 -0.15872474 0.2011439
0.0020218766 0.23254429 0.21753398 -0.017010668 -0.23824832 0.054890152 -0.27239084 -0.12117956
0.15300424 0.19509664 0.25413826 0.04259223 0.11467203 -0.2035327 -0.23555411 -0.07773224
0.1859014 0.19178973 0.15602481 0.122904025 -0.41282472 0.30677775 0.08874217 -0.034538362
0.076881446 0.2813093 0.11709738 -0.14159332 0.06660032 0.16967493 0.27902368 -0.09929484

fc7.bias f4 [8]
00000000: 1955 42bd fc46 2d3e e24a e13e dc36 cf3d
00000010: c53e 8c3e 3fc1 c2bb 70ac 773e 4e68 f53d
-0.047444437 0.1692161 0.44002444 0.101178855 0.2739164 -0.005943447 0.24186873 0.11982785
